outputs/models/trained_policy_custom.pth (torch, 7559 bytes, 6 tensors)

actor_logstd f4 [2]
00000000: e234 59bf 5849 4abf
-0.8484632 -0.79018164

fc1.weight f4 [128, 4]
00000000: dd3c ebbd 7833 4f3e 5f27 c03d bdf8 b03e
00000010: cbc9 babd c8d8 a63f 8b05 88bf 7d0f aa3e
00000020: d9fd 463e 4374 f4bf 1588 1f3f 45d5 ecbe
00000030: f219 05be 1024 a93f b672 cf3d 3d91 2cbf
00000040: b368 673d ce12 b4bf 0c6c 79bd 4075 f83e
00000050: 3274 e33e 6524 55bf 627f 80bf 4c77 2d3f
00000060: f83a 2bbe 62da 263d 8f55 d43e 4394 c6bd
00000070: ec85 123e be5c 03c0 9132 243e 9105 8f3d
00000080: 5126 34be 38d0 493e da71 69be d117 81be
00000090: f4f2 d33c ff51 7ebe 9cfa 543e 4ba2 52bd
000000a0: 87b6 a13e 5758 b0bf 36ce 553f caf1 f7be
000000b0: a2ff cd3e d439 6cbf b69b 023f 95c6 1dbe
000000c0: c530 a73e 2ab7 e4be 83fe 1fbe f010 b43e
000000d0: 1798 efbe eb25 cebd 63fe 40be 9787 43be
000000e0: 8fcd b43e 28ac f7bf 3897 f03d 16d6 68be
000000f0: 0ab3 d33c bd8a 2c3e c339 e4bf 6c40 e0bd
00000100: 7b50 b53e 2d40 92bf fc30 89be f2cf 9a3e
00000110: 616c 9e3d da2d b2bf 5bcf 223f b3d7 0dbf
00000120: f279 093f bb7d 55be 1f86 323e e0ba da3e
00000130: 4092 d03e 73ad 07bf d939 823d 4f20 cc3e
00000140: 4dad f53e 4327 01c0 7cb8 fc3d 6d1c a0be
00000150: 00a0 25be ac4e a1bf a1c3 35be 2af7 81be
00000160: 9401 cc3e dd96 79bf 7b43 9ebd 00b2 d33e
00000170: 8427 c13e 8292 f0bd df5f 193d 9769 df3e
00000180: 18f2 8ebe 9af3 af3f e964 5abe e739 1fbe
00000190: c597 d13e 0cb8 863f 0fb9 41be 5b33 38bf
000001a0: b802 debc 516a 9b3f 4e38 8dbd 3865 d6be
000001b0: f8b6 f53e 16b1 98bf bd7d f73e a18d 823e
000001c0: 9f5a 4d3e f33f 90bf 4230 a73e 2f82 b53d
000001d0: 2951 d6be 29dc b83f a700 8ebe ac81 a7be
000001e0: 2e40 5f3e ea06 863f f521 9b3c a282 59bf
000001f0: d254 e9be 2097 94be 4c48 4a3e 4c9e 3cbe
00000200: fa45 9a3e 2818 eebf 688c 503f c57f 93be
00000210: 7f71 553e 2cf1 323f b697 9bbd 2f2e 223e
00000220: 867c 4d3e 1f52 02c0 c722 073f e600 a3be
00000230: 18f1 65be c174 c33f 74ac 11bf c5a4 47bd
00000240: b013 613d 36f1 843e 040e a9be 705f edbd
00000250: 0305 a3be 7f0c f3bf 8c7f 2d3f ed00 04bf
00000260: aa0b 363f 4130 e5be 9a62 223f 736b 243e
00000270: df2f dcbe 6c5a b93f 69fc 56bf 70ff 7dbe
00000280: 07bb 053e 72d1 32bf aef3 34bf fb80 173f
00000290: 7de8 e5bd 62a8 a53f d481 e8be 8ed0 97be
000002a0: 0c11 a13e 586a 0bc0 f724 133f 90c5 873e
000002b0: c1b7 493e 7d41 7abd 993e 233f 267c 00be
000002c0: 792a 1e3f 9ab3 6c3f 1ffd 80be ffc9 0ebf
000002d0: e403 c43e e6ca 913f 5f6f 58be 23a2 e5be
000002e0: bf26 2a3f 3995 50bf b380 283d a893 773e
000002f0: 7489 d63e 5341 c1bf 0e3c 96be e94c bf3e
00000300: 2e10 4cbe 5695 70bf 1876 52bf 60af 5d3f
00000310: 62dd 0d3f 5c2a 57bf f673 e93e f9c5 613d
00000320: dc43 193f b5b6 02c0 642b 933d 069f 7d3e
00000330: 523c 953e db59 01bf a4f5 cd3e 1661 013e
00000340: 21b4 d03e 874e a4bf 5b16 f2bd 98a3 ac3e
00000350: 1e78 743d 6bec 0ebf e9a7 233f 92c8 c13e
00000360: f6f8 25bc 65b0 8cbf 512f 2bbf d257 fe3e
00000370: c094 253f d7a9 20bf 6a07 16be 0820 c03e
00000380: 6cf3 aa3e 5d54 0ac0 b351 f9bb b429 e03e
00000390: e33a 9fbe 09ee 8c3d 16d5 01be e82a 00be
000003a0: 3367 d2bd b726 9f3d aaae a8be d62f c93d
000003b0: ac1a 1d3f fe02 73be 83bf e3be 9765 213f
000003c0: 89f0 273f 2db3 7bbf 06ae 273e 6a7e f2bd
000003d0: f3ab fd3e ec83 9fbf 9f7b bc3e 809b 8f3d
000003e0: 140d c0be fc2c 59be 4820 b8bd 007a 0bbb
000003f0: cf51 edbe beb6 933f 86d2 283c 0192 82be
-0.11486218 0.20234478 0.093825094 0.34564772 -0.0912052 1.3034906 -1.0626692 0.33214942
0.19432773 -1.909798 0.6231702 -0.46256462 -0.12998179 1.321413 0.10129301 -0.67409116
0.056496333 -1.4068239 -0.060894057 0.48526955 0.44424587 -0.8325866 -1.0038874 0.6776016
-0.16721714 0.04073561 0.41471526 -0.096962474 0.143089 -2.0525355 0.16034915 0.069834836
-0.17592742 0.19708335 -0.22797337 -0.25213483 0.025872685 -0.24835967 0.20798725 -0.051424306
0.3158457 -1.3776959 0.8351778 -0.48426658 0.40234095 -0.9227574 0.51018846 -0.15407784
0.32654396 -0.44670993 -0.15624432 0.35169172 -0.46795723 -0.10065826 -0.18847041 -0.19094692
0.3531308 -1.9349413 0.11747593 -0.22737917 0.025842208 0.168498 -1.7830127 -0.109497875
0.35412964 -1.1425835 -0.26795185 0.30236775 0.077355154 -1.3920243 0.6359765 -0.55407256
0.537017 -0.20848744 0.17433976 0.427207 0.4073658 -0.5299904 0.0635869 0.398684
0.4798378 -2.0180213 0.12339875 -0.31271687 -0.16174316 -1.2602134 -0.17750408 -0.25383884
0.39844954 -0.97495824 -0.07727715 0.4134674 0.3772546 -0.11746694 0.037444945 0.43635246
-0.27919078 1.3746216 -0.21327557 -0.15549432 0.40936103 1.0524917 -0.1891825 -0.7195336
-0.027100906 1.214182 -0.06895505 -0.418741 0.47991157 -1.1929042 0.48338118 0.2549868
0.200541 -1.1269516 0.32654005 0.08862721 -0.41858795 1.4442188 -0.27734873 -0.3271612
0.21801826 1.047086 0.01893709 -0.84964955 -0.45572525 -0.2902155 0.19754142 -0.1841976
0.30131513 -1.8601122 0.8146424 -0.28808418 0.20844077 0.6989925 -0.07597296 0.1583793
0.20067033 -2.0362623 0.5278744 -0.31836623 -0.22455251 1.5270005 -0.5690377 -0.04874112
0.054950416 0.2596528 -0.33018506 -0.11590469 -0.3183976 -1.8988189 0.67772746 -0.5156391
0.7111155 -0.44763377 0.63431704 0.16056614 -0.43005273 1.448072 -0.839789 -0.24804473
0.13059627 -0.6985084 -0.70684326 0.59181184 -0.11225984 1.2942011 -0.4541155 -0.29651302
0.31458318 -2.1783657 0.5747828 0.26517916 0.19699003 -0.06109761 0.6376739 -0.12547359
0.6178356 0.9246155 -0.25193116 -0.5577697 0.38284218 1.1390045 -0.21136235 -0.44850263
0.6646537 -0.81477696 0.041138362 0.2417742 0.41901743 -1.509806 -0.29342693 0.37363365
-0.19928047 -0.9397787 -0.82211447 0.86595726 0.5541593 -0.8404901 0.45596284 0.055120442
0.5986917 -2.0424016 0.071860105 0.24767694 0.29147583 -0.50527734 0.4022647 0.12634692
0.40762427 -1.2836465 -0.1182067 0.33718562 0.059684865 -0.55829495 0.63928086 0.37848336
-0.010130158 -1.0991331 -0.66869074 0.49676377 0.646801 -0.62759155 -0.14651266 0.37524438
0.3338884 -2.1613991 -0.0076086163 0.43781817 -0.31099615 0.06881339 -0.12678942 -0.12516367
-0.1027359 0.07771056 -0.32945758 0.09823577 0.61368823 -0.2373161 -0.4448205 0.6304564
0.656014 -0.98320276 0.16374978 -0.11840518 0.4954525 -1.2462134 0.36813065 0.07012081
-0.37509978 -0.21208566 -0.08990532 -0.0021282434 -0.46351478 1.1540143 0.010304099 -0.25502017

fc1.bias f4 [128]
00000000: 505d 1c3f e68e 81be 8ac3 5f3e b64c f73c
00000010: 43af 9d3e a340 c63e b859 673f e24a a13e
00000020: af13 ac3e 37db 753f 6664 463d 76ca 5a3f
00000030: 7b5e 623f 61de cdbc 5c4e d93e bb48 b23e
00000040: 8b7c 733f e9b3 de3e 72e3 1a3d a338 b13e
00000050: aa4e eb3e 0be7 493f e4ea 523f d3ff c33e
00000060: dacd edbe 4000 b83e 6b89 7bbe 6c02 1e3f
00000070: 9956 5d3f 49ad b1bd 017d 2b3d 3926 98be
00000080: f8d8 753d a7b2 123f f780 733e 7db4 dbbe
00000090: 7401 b9be 77b9 283f 332d 833f 4123 4d3e
000000a0: db83 1d3f 33eb 66be 90f6 cabd 88b6 4d3f
000000b0: f1de 153e 5f3c 65bd 8e09 e23e 0103 2b3e
000000c0: 03c4 503f 1ec5 423f 6efc 2f3d a690 663f
000000d0: bdbd 553f 946b 863e bf5e 893e ddfc 193f
000000e0: 570f ae3d 50ec 143e 136a 23be 401f 4a3f
000000f0: b32b 383f bc85 593f 1af9 b8be d56f 85be
00000100: 6840 26be f1ca c63e 9fe8 ae3e 2f9a d53e
00000110: 291c ab3e 4e15 e6bc 649f f93e 513c 683e
00000120: 31fc 783f 0c85 6b3f c2b5 373f bcfb c7be
00000130: 2903 f83e 9091 9e3e ab45 cebd f9c4 3c3f
00000140: 63c6 4c3e c1e4 4bbd 2635 343f ad6e 9bbe
00000150: b002 4f3e 3116 90bc 51bc f53e f134 0c3f
00000160: 6455 c33e 9150 0a3f c92b f7bd 5a42 5d3f
00000170: dae7 373e 3ad3 b63d fde5 113f 8526 c63e
00000180: ecc5 aa3e 921e ddbe 6ef7 b33d 738d c93e
00000190: 13cc 413f 355b ff3e 4a65 493f 480c c03c
000001a0: 99a2 1a3e de83 043f d9f6 403f c3b8 95bd
000001b0: 3dce d13e 34dc 503f a267 1a3f 7952 4b3f
000001c0: 12d9 843e 0c30 85bd c792 5abe b353 3abe
000001d0: ddc8 543f 4a86 a73e 504f de3e 0332 c73e
000001e0: c328 ef3d 820f 8abe 4125 8b3e 024b e83e
000001f0: ad07 2d3d d872 773f 56bd 28be a1ae fd3e
0.61079884 -0.25304335 0.21851936 0.030187946 0.30797777 0.3872119 0.90371275 0.31502444
0.33608767 0.9603762 0.04843559 0.8546518 0.88425416 -0.025130453 0.42442596 0.34821114
0.9511191 0.43496636 0.037814565 0.34613523 0.45958453 0.7886817 0.82389665 0.38281116
-0.46446115 0.3593769 -0.2456414 0.61722445 0.8646026 -0.0867563 0.04186726 -0.29716662
0.06002137 0.5730385 0.23779665 -0.4291114 -0.3613392 0.65907997 1.0248169 0.2003298
0.6152932 -0.22550659 -0.09910309 0.80356646 0.14635827 -0.055965777 0.44147915 0.16700365
0.8154909 0.76082027 0.042965345 0.90064466 0.8349264 0.2625395 0.26830098 0.60151464
0.084990196 0.14543271 -0.15958433 0.78953934 0.7194168 0.8496969 -0.3612755 -0.26061884
-0.16235507 0.38826707 0.3416185 0.41719195 0.33419922 -0.02808633 0.48754418 0.22679259
0.97259814 0.9199989 0.71761715 -0.39059246 0.4843991 0.3097043 -0.10071882 0.73738056
0.19997554 -0.049778704 0.703936 -0.30357876 0.20215869 -0.017588707 0.47995237 0.5476828
0.38151085 0.54029185 -0.12068898 0.8642937 0.17959538 0.08927007 0.5699156 0.38701263
0.33354127 -0.43187386 0.08787428 0.3936573 0.7570202 0.49874273 0.7867018 0.023443356
0.15101089 0.51763713 0.7537666 -0.07310631 0.4097766 0.81586003 0.6031438 0.7942272
0.25946862 -0.06503305 -0.21345054 -0.18195991 0.83118993 0.32719642 0.43419886 0.38905343
0.116776966 -0.26964957 0.2717686 0.45369726 0.04224365 0.9665961 -0.16478476 0.49547294

actor_mean.weight f4 [2, 128]
00000000: 9223 25bd 8eae 373f 8913 173e 0510 073e
00000010: 787c 803b 7c58 72bd 2bdb 93bd 1bfb 2a3d
00000020: 6653 8d3e 5460 a3bc a567 0a3e af95 1dbc
00000030: 12c4 263d e78c 7c3b 1ab8 423e a9da 8e3d
00000040: 70ee 4ebd 87b5 3f3e 42f0 3a3c 65ab 03be
00000050: 385e ed3d 5297 983d 775e 963d 9665 3c3d
00000060: b5cc 84ba f74d 893c b7ec 86bd 5729 0b3d
00000070: 9dd0 2e3d 39d8 0b3e b065 c13b f7ff b63b
00000080: 1fb3 f43d 9de3 313e a8a8 8ebc 045f 2dbe
00000090: eada 42bd 4ead 9e3d b643 31bd 0271 9c3d
000000a0: c660 a83c 5b8d e73d 1435 1ebc 1113 49bc
000000b0: 87fd c13d 0e19 1dbc 2c67 993c d11e 4f3e
000000c0: 2ac6 1bbe 3e69 843c d167 e13c b530 0c3d
000000d0: 12cc 833d a41a 22bd cdb2 abbe 55c8 043c
000000e0: 0b8d 253e 0729 2b3d 38a1 bf3d d319 c8bd
000000f0: ae8c 223d aeb4 88bd c15e 9bbc 62f4 133b
00000100: 6086 7c3c bfe6 ca3d f6e0 a93d b89e 75bd
00000110: 1203 15bd bc16 383e d717 bd3c def9 813d
00000120: 0c3a bfbd 328a 853c 6fae 403d 5c61 d9bc
00000130: 1f31 703d e1cb 2d3e 45d9 ff3d 8fa8 3e3d
00000140: 6448 053d 04b7 233c 6a26 9cbd 860a 053b
00000150: b917 b83d ceed a13d 89bf 483e 9c1d ce3d
00000160: 1858 b43d 9bce 833c c102 c1bc 4bc5 81bc
00000170: ab0d ad3d acca 253e ff39 823d ce82 3fbd
00000180: 7882 abbd fbe6 87bc f8d5 91bd 4226 ddbb
00000190: b405 b3bd 493f de3c 44b0 e1bc 9185 443e
000001a0: a465 833d 14ae 6a3d a89a d9bc 19be 963d
000001b0: 4765 843d a405 e33c bd90 a73d 725d 033d
000001c0: b58b 953d 21d7 f23c f23f 873d 145f 0c3e
000001d0: de1b ad3d fc82 f93d 9448 b73d 12bd f83d
000001e0: c631 213d f53a 1bbd b1f1 333e 03b3 82bd
000001f0: 50f9 783d 68b0 e73c 8e45 e03e 3541 c5bc
00000200: 3eda f2bd 454b fe3e d294 5f3e 2668 813e
00000210: 6bb3 0cbd ee8f 523d 2815 b0bd 9a79 003e
00000220: dcad 533d 23ac e2bd 6413 6ebd ddfc 083b
00000230: a99c 81bb 98b1 12bc 765f 0a3e c9ed 393e
00000240: e044 b2b8 184e d8bd 65dc ec3c d639 9bbd
00000250: ce6b 053d cba0 a8bd ea1c e7bd 3c2d 01bd
00000260: 5ba6 d4bb 6d10 b33e c5cc ab3e b115 833c
00000270: 8e3c 8abd c06c aa3e e095 af3d 31a3 39bd
00000280: 1cc0 b43c 70df aabe c688 573e c9fb 8c3e
00000290: 2f18 963c 9762 64bc 8c68 15bd 4b9f d83e
000002a0: 305e 81bb 34fc 593e 8b8a b63d ac09 80bd
000002b0: de42 b73e 5958 943e 67ed d2bc 968c a5be
000002c0: 8564 fdbd f743 d1bd ad0a 903c 2fc2 a7bd
000002d0: 82b7 703c ac5b bbbd 5c09 6a3e ac3b e8bd
000002e0: bd88 07bd 26c1 59be df5d f43c cac3 fdbd
000002f0: ac28 eabd 326d b43b cdcf 923d 0949 113e
00000300: d4a5 413e 40a4 42be 7d34 353d 9a16 083d
00000310: 1fc3 ed3e 851c ad3d 6375 c23c 8ede 383b
00000320: e0c4 abbd afe6 923c 8132 8fbd 6e80 dab9
00000330: 4a54 3e3e 0750 1abe 2b2c 9e3e 48a6 633d
00000340: 9b2a b53d ab12 d5bc 2081 63bd d916 773d
00000350: ddad 2f3a 5d5c ec3c a5e9 56be bb61 083d
00000360: 7b41 f93e efcd 393e 49b4 a13c 6618 bcbd
00000370: b4df 6639 ddae d83c e781 da3e a6de c7bd
00000380: 50ee 38bc 4513 d2bc b3e4 9a3d 7661 5b3c
00000390: 36fc a3bd ea45 ed3c 9cb9 90bd 6a85 b93e
000003a0: 2c54 913e 02bc 8dbe f401 7b3d db87 ef3e
000003b0: 7df1 0fbe 6dd0 c2bd 7614 163c 5e83 29bc
000003c0: 1995 253d 06dc f33d e004 483e cbfe ba3e
000003d0: de22 02bd 8c7a 0d3d ad5f c23d e7ab d13d
000003e0: 6460 41bd eeb2 4cbd 0bf2 6d3e 3249 54bd
000003f0: d0e1 c33e 9872 3ebd 2acc fc3e 91d3 05bd
-0.040317126 0.71750724 0.14753546 0.13189705 0.003921088 -0.059166417 -0.07219537 0.04174338
0.2760269 -0.019943394 0.135161 -0.009618207 0.04071433 0.0038536133 0.19015542 0.069753
-0.05052036 0.18721591 0.011409821 -0.1285835 0.115902364 0.07450737 0.073422365 0.045995317
-0.0010131808 0.01676081 -0.065881185 0.03397497 0.042679418 0.13656701 0.0059020147 0.0055847126
0.11948227 0.17371984 -0.017414406 -0.16930777 -0.047572054 0.07747899 -0.043277465 0.07638742
0.020553958 0.11306258 -0.0096562095 -0.012272612 0.09472185 -0.009588493 0.018725954 0.202266
-0.15212312 0.016163465 0.027515324 0.03422614 0.06435408 -0.039576188 -0.33534852 0.0081044035
0.16167085 0.041787174 0.09356922 -0.097705506 0.039684944 -0.06675087 -0.01896608 0.0022576083
0.015412897 0.099072926 0.08294861 -0.05996582 -0.03637988 0.17977422 0.023082657 0.063464865
-0.093372434 0.016301248 0.047041353 -0.026535682 0.058640596 0.16972305 0.12492613 0.04654747
0.03253974 0.009992365 -0.076245144 0.0020300462 0.089889 0.07906686 0.19604315 0.10064241
0.08805865 0.016089728 -0.023560883 -0.015841147 0.084498726 0.16190594 0.06358718 -0.046755604
-0.08374494 -0.016589632 -0.071208894 -0.0067489455 -0.08741322 0.027129786 -0.02754987 0.19191577
0.06415871 0.05729492 -0.026563004 0.07360477 0.064646296 0.02771265 0.081819035 0.03207154
0.073020376 0.029643597 0.066039935 0.13708144 0.08452581 0.121831864 0.0894939 0.12145437
0.03935411 -0.037898023 0.17572667 -0.063818 0.060784638 0.02828236 0.43803066 -0.024078945
-0.11858033 0.496668 0.21834114 0.2527477 -0.034350794 0.051406793 -0.08597785 0.12546387
0.051679477 -0.11067989 -0.05812396 0.0020902671 -0.003955443 -0.008953474 0.13512978 0.18157114
-8.5005304e-05 -0.1056177 0.028913686 -0.07579391 0.032573514 -0.08233794 -0.11284812 -0.03153728
-0.0064895577 0.3497347 0.33554664 0.016001554 -0.06749831 0.33286095 0.08573508 -0.045321647
0.022064261 -0.33373594 0.21048269 0.27535847 0.018322079 -0.013939521 -0.036476657 0.4230903
-0.0039479956 0.21287614 0.08913144 -0.06251845 0.35793203 0.28973654 -0.025747968 -0.3233382
-0.12372688 -0.102180414 0.017583216 -0.081913345 0.014692189 -0.091483444 0.22855133 -0.113395065
-0.03308939 -0.21265087 0.029829917 -0.123908594 -0.11433539 0.005506181 0.07168541 0.14188017
0.18910915 -0.19007969 0.04423951 0.03322468 0.46437928 0.08452705 0.023737615 0.0028208825
-0.0838716 0.017932264 -0.06992055 -0.00041675888 0.18586841 -0.1506959 0.30893072 0.0555785
0.08846017 -0.026009878 -0.055543065 0.060324524 0.0006701628 0.028852636 -0.20987566 0.033296328
0.4868277 0.18144964 0.019739287 -0.09184341 0.00022017845 0.026450569 0.42677233 -0.09759264
-0.011287287 -0.025643954 0.07563152 0.013389936 -0.0800709 0.028964002 -0.07066652 0.362346
0.2838453 -0.276825 0.06128116 0.46783337 -0.14056964 -0.0951241 0.009160152 -0.010346262
0.040425394 0.119072005 0.1953311 0.36522517 -0.031771533 0.034540698 0.09490905 0.10237866
-0.047211066 -0.04997533 0.23236863 -0.051827617 0.3825822 -0.046496004 0.49374515 -0.03267247

actor_mean.bias f4 [2]
00000000: d203 4dbd 9a69 6b3f
-0.05005247 0.9195801

critic.weight f4 [1, 128]
00000000: d82c 26be 65ef 8abf cc7b c8bf 9df9 e3be
00000010: 5749 2dbf c3ac 06bf 758b 66be 9e1e c5bf
00000020: 1c8f 883e 7db8 babe 3ad9 91bf 751e f9be
00000030: d49f e6be c6d7 d8bd 6f0e c4bf d05b 2cbf
00000040: c8fe 0dbf a354 9cbf f21d b5be a828 f3be
00000050: f99c b6bf 7e15 6abf e241 18bf 3a4a 65be
00000060: 0e5c 84bf ac4a d7be 50a1 54bf 797c 0bbf
00000070: caaf 1bbf c771 4dbf ca80 a9be f60a 2bbd
00000080: b5d0 a0bf e00f 283f 605e c2bf 057e a0bf
00000090: fd47 a9bd a6c9 90bf a8ce 8fbe cc85 7abf
000000a0: 3dbe d1be 3aba 43bf 7b9a aabf 35c7 2ebe
000000b0: 305e 09bf bfa3 e2be 4565 08bf 4877 9cbf
000000c0: 258a 0abf 9978 d6be d76a 9fbf accc c7be
000000d0: 826b 16bf a7e5 12bf 8584 6abf 9bc0 06bf
000000e0: 23fc cdbf 729c 443d bb5f 853c 90a4 b5be
000000f0: e20e 02bf e49e e7be 8f4d 833d 617f 43bf
00000100: 255f 80bf d663 2ebe cd6a 71bf ef3c a7bf
00000110: efd6 46bf 0968 1abf 48dd b0bf a24e 9cbf
00000120: 321a fdbe 2362 7bbe e779 f9be 164c 01bd
00000130: d82b b0bf 25de 8fbf fb8f 3abf ad60 13bf
00000140: 39b0 bcbf acee 9ebf ab54 8bbe 3410 c03c
00000150: a119 78bf 9809 a1bf 7dce 2d3f 66af 7bbf
00000160: d803 39bf 9981 bdbf 0d6c 80bf 5725 17bf
00000170: 2201 88bf 50cd f5be 4f86 1cbf 05b7 0cbf
00000180: d2da f8be 1bc9 9cbc 5bd3 8fbf 97e5 4cbf
00000190: 977a bebe 426d bdbe 6b7c 9bbe 740c 79bf
000001a0: 4a46 16bf f917 7d3d e68d 98bf b07e a4bf
000001b0: 8e0b 52bf c37e 9abe 567b 2dbf 7ab1 30bf
000001c0: 0bd7 803e 355f b0be 0ca4 22bf 1efd 43bf
000001d0: 9ee4 f7be 8542 253e 2857 95bf cba5 b3bf
000001e0: 7bae 3bbf 2052 033e 5278 78bf 6449 cfbd
000001f0: bd5d 74bf f057 d9be 211f 7dbf b172 aebf
-0.16228044 -1.0854307 -1.566278 -0.44526377 -0.6769003 -0.52607363 -0.22514136 -1.5399969
0.26671684 -0.36468878 -1.1394417 -0.4865605 -0.45043814 -0.105880305 -1.5316905 -0.67327595
-0.5546689 -1.2213329 -0.3537441 -0.47491956 -1.4266654 -0.91439044 -0.5947553 -0.22391596
-1.0340593 -0.42049158 -0.83058643 -0.54486805 -0.6081511 -0.80251735 -0.3310607 -0.0417585
-1.2563692 0.65649223 -1.5185051 -1.2538458 -0.08265684 -1.1311538 -0.28087354 -0.9786041
-0.40965453 -0.76456034 -1.3328394 -0.17068179 -0.53659344 -0.44265553 -0.53279525 -1.2223902
-0.5411704 -0.41888884 -1.245448 -0.3902334 -0.58757794 -0.5738167 -0.9160846 -0.5263764
-1.6092571 0.04800076 0.016281 -0.35477114 -0.5080396 -0.4523841 0.064112775 -0.7636624
-1.0029036 -0.17030272 -0.9430359 -1.306547 -0.7767171 -0.60314995 -1.381753 -1.2211497
-0.49434048 -0.24549155 -0.48725817 -0.0315667 -1.376338 -1.1239668 -0.72875947 -0.5756939
-1.4741279 -1.2416587 -0.27213034 0.023445226 -0.96914107 -1.2581053 0.678932 -0.9831451
-0.7227149 -1.4805175 -1.0032974 -0.5904135 -1.0625346 -0.48008204 -0.6114244 -0.54966766
-0.48604447 -0.019138863 -1.1236376 -0.80037826 -0.37202904 -0.3699742 -0.3036836 -0.97284627
-0.58701 0.06179044 -1.1918304 -1.2851162 -0.8204888 -0.30174837 -0.6776632 -0.6902081
0.25164065 -0.34447637 -0.63531566 -0.765581 -0.4841661 0.16138656 -1.1667223 -1.4034971
-0.7331311 0.12824297 -0.97058594 -0.1012142 -0.95455533 -0.42449903 -0.98875624 -1.3628751
